model.pth (torch, 916776 bytes, 8 tensors)

conv1.weight f4 [32, 1, 3, 3]
000000 70 58 ab 3e 57 df b6 3d b5 4b bc be 12 ff d6 3e
       0.3346591 0.089293174 -0.3677651 0.41991478
000010 34 7f 03 3e db dc f9 be 9c 19 1c 3f 3a 79 89 be
       0.12841493 -0.48801312 0.60976577 -0.268503
000020 18 be e9 be 95 59 d2 be d7 46 04 3e e9 6e 0f 3e
       -0.45652843 -0.4108397 0.12917648 0.14007153
000030 fc 96 07 be 3e cd 96 3d b6 bb 63 3e 28 23 44 be
       -0.1324119 0.073633656 0.22239575 -0.19154036
000040 02 38 f1 3c c3 83 db 3e cb 5a 2a be af 1a 06 3f
       0.029445652 0.42873964 -0.16636197 0.52384466
000050 8b 5c 49 be 0a 49 e0 3e 03 31 e6 3d 7c 80 01 bf
       -0.19664209 0.43805724 0.11239817 -0.50586677
000060 a3 d6 de 3e de 3a 99 be 26 47 cb be dd eb 26 be
       0.4352313 -0.29927725 -0.3970272 -0.16300912
000070 bf 53 75 be ce 1b f2 bd c7 2f 65 be d7 72 c4 be
       -0.23957728 -0.118217096 -0.22381507 -0.38368866
000080 e2 f2 87 be b5 df 8a be 03 8b 7d be 9a cd 39 be
       -0.26552492 -0.271238 -0.2476006 -0.18144837
000090 92 bd 1b bd f3 c2 8b 3e 9d e8 b4 3c 60 d4 cc be
       -0.038022585 0.27297172 0.022083575 -0.4000578
0000a0 4b e9 94 3e e1 9f 01 3f fe 2b 19 bf 06 71 05 3e
       0.29084238 0.5063458 -0.5983275 0.13031396
0000b0 21 a3 6a 3d 3d 4c c2 be 89 33 87 be 13 f2 ce bd
       0.057284478 -0.3794879 -0.26406506 -0.10104766
0000c0 0d 99 0e bf cb b7 69 be 4a 9f 79 3e 6f 6e 55 3d
       -0.55702287 -0.22824018 0.2437717 0.05210727
0000d0 58 60 12 3f 72 b1 15 3f 77 f1 b1 be 9e 7b 6d be
       0.5717826 0.58473885 -0.34754536 -0.23191687
0000e0 42 51 08 3f 3b ab b1 bd 27 84 dc be c9 c3 d6 3e
       0.5324899 -0.08675238 -0.43069574 0.41946247
0000f0 d2 87 c0 be d3 0f 18 be 08 de cf 3e 19 1e 0d 3f
       -0.37603623 -0.14849786 0.40599084 0.5512405
000100 03 c3 a5 3e 28 6c b0 3e 46 69 8c bd f1 e2 76 3e
       0.32375345 0.34457517 -0.06856017 0.24110009
000110 64 c5 93 be 25 84 5d be c9 d5 2a bf 2e bb 9a be
       -0.28861535 -0.2163244 -0.6673246 -0.30220932
000120 f5 ad d1 3e 5f ca 98 3e e8 17 b3 3e 50 fa b0 3e
       0.4095303 0.29841897 0.34979177 0.34565973
000130 92 5f 59 3e 1b 64 81 3d 8e b6 86 bd 25 49 30 bf
       0.21227863 0.06317922 -0.06577788 -0.6886161
000140 39 25 6f bf 5f 22 3b be 26 8b aa be ab 29 b4 3d
       -0.9341617 -0.1827483 -0.33309287 0.0879701
000150 02 5f 9b be e6 29 13 3e 87 3f 56 be a5 b0 3c bd
       -0.30345923 0.14371452 -0.20922671 -0.0460669
000160 6e 8a e2 bb c2 b1 14 bb 94 c1 5a 3d bc 39 03 bd
       -0.0069134748 -0.002268896 0.053407267 -0.03203748
000170 59 6d ff bd 5c 15 60 3e 09 44 82 3e 2b 3f 91 3e
       -0.12472028 0.21883148 0.25442532 0.28368506
000180 0d d8 0e 3e c5 99 55 bd b1 30 b4 3e 6d 7a 28 3f
       0.13949604 -0.0521486 0.351934 0.65811807
000190 bb 41 23 3d 32 5f 10 be 9f 13 48 3e de 75 9f be
       0.039857607 -0.14098814 0.19538735 -0.31144613
0001a0 e7 db 0e bf d3 cc be be f5 b6 1c bf fb 2a dc be
       -0.55804294 -0.37265643 -0.6121667 -0.43001541
0001b0 8f a5 74 be 8f 5d 33 be 93 d5 90 be ca 68 7d be
       -0.2389128 -0.17516159 -0.28287944 -0.24747005
0001c0 51 f3 c7 be 1c 77 64 be ac 3b c2 bd 1c 0e cd be
       -0.39052823 -0.22311062 -0.09484038 -0.40049827
0001d0 95 33 89 3e c2 11 63 be 02 f2 e8 bd b7 20 08 3f
       0.26797166 -0.22174743 -0.11374284 0.5317492
0001e0 de 6a 06 bd 82 03 03 be 86 6e 1e 3f 19 54 0f bf
       -0.03281676 -0.12794307 0.61887395 -0.559877
0001f0 63 b8 81 be 12 c6 a0 3e a1 cc 20 bf c6 35 8a 3d
       -0.25335988 0.31401116 -0.6281224 0.06748538
000200 02 a9 43 3e ff f0 81 be f3 ee 71 bd cd ad 0f 3f
       0.1910744 -0.25379178 -0.05906577 0.56124574
000210 1c 1b d1 be a7 f3 09 3d 56 af fe 3e d7 22 7c 3e
       -0.40840995 0.03367963 0.49743146 0.24622665
000220 8d 74 08 bf a4 4c 02 bf 7d b4 98 be f6 07 a6 3c
       -0.5330284 -0.50898194 -0.29825202 0.020267468
000230 30 65 2b bd da 4b 32 3e 21 ff e0 3e 21 db fe 3e
       -0.041844547 0.17411748 0.43944648 0.49776557
000240 5f ab 32 bd 11 d1 e2 3e 12 38 b7 be 79 04 51 3c
       -0.043620463 0.4430013 -0.35784966 0.012757414
000250 1d 5b c3 3e 54 4c bf bd 2a 84 34 be f9 9b 83 bd
       0.3815545 -0.0934073 -0.17628542 -0.06426234
000260 f0 c8 94 3e be 71 9a 3e 0a a0 83 be 8c 15 dc be
       0.29059553 0.30164903 -0.25708038 -0.4298519
000270 b8 68 ab 3e bc 19 4c 3e ea 72 2f bf 5e fb f2 3e
       0.33478332 0.19931692 -0.6853472 0.47457403
000280 51 bb 6e be 32 4f cb be 9f 6a 48 3f 9f 71 0f be
       -0.23313643 -0.3970886 0.7828769 -0.14008187
000290 b6 11 28 bf 10 54 ac bd fc ee 12 bf 9b da 04 bf
       -0.65652025 -0.08414471 -0.5739591 -0.51896065
0002a0 cb f9 f9 be b5 90 f0 be 44 0e 74 be 60 70 ba be
       -0.4882339 -0.46985403 -0.23833567 -0.3641386
0002b0 62 ae c1 39 ff 2f db be d5 3b e6 3e c4 1b 27 3f
       0.00036941754 -0.42810056 0.44967523 0.6527674
0002c0 3d 97 4a 3e bf cf d7 be b5 0d 81 be 52 75 36 be
       0.19784255 -0.42150685 -0.2520577 -0.17818192
0002d0 f1 98 d3 bd 0b 5a 10 3f 6b 53 11 3f 7c e2 cd be
       -0.10331906 0.56387395 0.5676791 -0.40211856
0002e0 da a6 86 3d 42 f8 2d 3f 77 a5 45 bf 52 af 21 bf
       0.06574793 0.67956936 -0.77205604 -0.6315814
0002f0 5f ce 3d bd 50 f3 7a 3e 43 d6 9e 3e 5a 16 79 bc
       -0.04633939 0.24506879 0.31022844 -0.015203083
000300 19 60 db be 99 e8 08 bd ec fb b8 3e 3b e0 20 be
       -0.42846754 -0.033424947 0.361297 -0.15710537
000310 27 a5 b1 3e 5a 8a 95 bd 05 2d 3d be 68 3f ac 3e
       0.34696314 -0.07301779 -0.18474205 0.33642125
000320 e6 a0 89 bc 0d 1c d7 be 2a fd 2c 3c 1d f4 ce bd
       -0.016800355 -0.4201359 0.010558406 -0.10105155
000330 d4 23 9c be 23 4c 40 3e 2b 42 45 be 34 aa af be
       -0.30496085 0.18779044 -0.19263522 -0.34309542
000340 e8 af f1 be d1 c2 7a bd fa 13 27 be 41 2b 17 be
       -0.47204518 -0.061220948 -0.16316214 -0.14762594
000350 82 a3 ed 3e fc 99 a6 3e 36 f8 9a 3e 25 e1 e9 3d
       0.4641381 0.32539356 0.30267495 0.11419896
000360 ed 5b d9 be 49 16 07 bf 3a 50 7e be a1 e1 ef 3c
       -0.42452946 -0.5276838 -0.24835292 0.029282393
000370 65 d8 ad 3e 6e 82 9c 3d fc e1 c1 3e 7c d7 16 3e
       0.33954158 0.07642065 0.37867725 0.14730638
000380 49 94 5e 3e 8f 46 de be 7e 0f df bd d5 77 d3 3e
       0.21736254 -0.43413207 -0.10891627 0.41302362
000390 56 30 31 bf 76 5f 8f be 8a db bb 3e b7 31 18 be
       -0.6921438 -0.28002518 0.36690933 -0.14862715
0003a0 2f cc e6 3e e1 b8 f0 3e c4 61 2f 3e 71 16 90 bd
       0.45077655 0.4701605 0.17127138 -0.0703553
0003b0 f9 14 91 3e a4 58 98 3e a6 b5 18 3e 2c 36 24 3e
       0.28336313 0.29755127 0.14913043 0.1603629
0003c0 6a 9d c8 3d a1 09 d4 be b9 8a ac be a8 9c eb bb
       0.09795649 -0.41413596 -0.33699587 -0.0071903057
0003d0 13 7e 32 3e 8a ca 3f 3d df 93 a2 be 7d 3e 00 3e
       0.17430906 0.046824016 -0.31753442 0.12523837
0003e0 9a 23 8a 3e 55 01 6d bd f8 5e 71 bc f1 11 81 3e
       0.26980287 -0.0578626 -0.014732115 0.25209
0003f0 3a b5 8a 3e f1 8e c3 3b 82 2d 5f be 3b 91 9b 3e
       0.2709139 0.0059679677 -0.21794704 0.3038424

conv1.bias f4 [32]
000000 0e e8 a1 3b 88 98 09 bd 15 f7 52 bc 07 28 05 3f
       0.004940993 -0.03359273 -0.012876292 0.520142
000010 bb b1 a0 bc fe 1b 58 bb 07 f8 3b 3e 94 16 a9 3c
       -0.019615998 -0.003297567 0.18356334 0.020640649
000020 1e f9 4d bc fc cd 48 be 71 a8 e6 bd a3 b5 ab 3e
       -0.012571601 -0.19609827 -0.112625964 0.33537015
000030 a4 7b 07 3f a4 aa 16 3b a5 25 c8 bb 7c 7d e6 bb
       0.52923036 0.0022989893 -0.006108003 -0.007034002
000040 db fe 42 bd a4 62 6b 3e f8 67 b1 3e e8 e1 9c 3c
       -0.04760633 0.22986847 0.34649634 0.01915069
000050 87 a5 f3 bb 26 b8 0d be a8 69 27 3e a0 0a b3 bb
       -0.007435504 -0.13839778 0.16348898 -0.005463913
000060 5e e0 01 ba 6d 62 1b bc 1f b8 25 be ee 1b fd bd
       -0.0004954393 -0.009483916 -0.16183518 -0.12358843
000070 0b 5f 02 be 7b 18 aa 3a 3d 40 0c be 1e 86 bf bd
       -0.12731569 0.0012977266 -0.1369638 -0.09351753

conv2.weight f4 [64, 32, 3, 3]
000000 67 31 2e 3e 87 71 bc bd 83 c7 d9 bd 5f 1f 94 3d
       0.17011033 -0.09201341 -0.10633757 0.07232546
000010 19 df 7d bd 0e a9 c6 bb ea 03 39 3d 5b 62 84 3d
       -0.06198034 -0.0060626334 0.04516975 0.06464072
000020 00 c0 27 be a6 87 1f 3d 32 a8 5a 3c b8 72 e8 3d
       -0.16381836 0.038947724 0.013345765 0.11350006
000030 26 c4 df bc 50 fb d4 3b c5 f9 0f be 63 5d e4 bd
       -0.02731521 0.0064996853 -0.14060123 -0.111506246
000040 d5 b2 c5 be 16 da 11 be 98 e6 0e bd eb 3a bb be
       -0.38613 -0.1424335 -0.03488788 -0.36568388
000050 39 20 c4 bd a6 b1 52 be c7 66 09 be 13 37 05 3d
       -0.095764585 -0.2057558 -0.13418113 0.032523226
000060 97 07 bb bc e7 f7 1e bd c4 12 17 be 55 6f 5e be
       -0.022830768 -0.038810637 -0.14753252 -0.21722157
000070 d0 aa 39 3e c7 a3 67 bd 6b f7 69 bd f5 83 60 be
       0.18131566 -0.056552675 -0.05712072 -0.21925338
000080 82 a9 0c be 40 e3 10 bd 77 7c 0f b9 32 0a dc 3d
       -0.13736537 -0.035372972 -0.0001368391 0.10744132
000090 63 3b cc bd 5f 49 d1 bd 14 dc 01 be 6b 1e 0e bd
       -0.099722646 -0.102190726 -0.1268161 -0.034696978
0000a0 e1 88 a1 3d b2 66 cd 3c be 6c 08 3d b5 6c 24 be
       0.07887436 0.025073383 0.03330683 -0.16057093
0000b0 0c 69 04 be 67 14 1c bc fd 79 20 3e cb 41 2b 3e
       -0.12930697 -0.009526349 0.15671535 0.16724317
0000c0 d5 bd 46 be 13 fd c6 bd e2 ef ac bd 84 fe 6f be
       -0.19408353 -0.09716239 -0.084441915 -0.23436934
0000d0 8d 94 2a be 7f d8 b0 3d f3 ef c8 be b3 c8 cd be
       -0.1665823 0.08635043 -0.39245567 -0.40192184
0000e0 59 f0 9b be 1a 26 d9 be 33 86 94 be 5e 5f f5 be
       -0.30456808 -0.42411882 -0.29008636 -0.47924322
0000f0 42 95 06 be b0 a2 8f be c3 9e c3 bd 3c 7a b6 bc
       -0.13142875 -0.28053808 -0.09551766 -0.022275083
000100 b2 55 84 bd 82 f7 aa 3c ca 9c 40 3e 42 1f 58 3e
       -0.064616576 0.020869974 0.1880981 0.21105674
000110 3d 27 81 3e 16 5d 49 3c 7b 19 67 3e 4e 07 3c 3e
       0.2522525 0.01229026 0.22568314 0.18362162
000120 69 85 ed 3d d6 e0 9b bd 30 fc 06 3b 9b 86 03 3e
       0.115977116 -0.076112434 0.0020597093 0.12844317
000130 59 ef 37 3e f0 5a 1e 3e 86 11 16 bd d7 ad c2 3d
       0.17962398 0.15464377 -0.036637805 0.095058136
000140 b3 34 c3 3c 79 df e4 bc bd dd 4e bd 1d d7 48 bc
       0.02382884 -0.027938591 -0.050504435 -0.012258318
000150 80 15 af bd 5f 7a 8c 3d 69 3a d1 bc 40 7c 5a bc
       -0.08549023 0.06859278 -0.025540547 -0.013335288
000160 d8 25 54 3d 31 24 48 3c f8 2e 2e 3d 5a e4 89 3c
       0.051793903 0.01221566 0.04252526 0.01683252
000170 42 ef ae 3d 35 ca 23 3d 3a 5d a1 3c e4 df d1 bb
       0.085417286 0.03998776 0.019697774 -0.0064048637
000180 a4 3e 7f 3d eb af 2b be 27 f1 79 be f1 ed 60 bd
       0.062315598 -0.16766326 -0.24408399 -0.05491442
000190 8e 94 ad bd 4e 83 c5 bd e6 1e c3 bd 78 9f 9f bd
       -0.084756 -0.09644185 -0.09527378 -0.07794088
0001a0 3d b9 0d 3e 1a 84 ee bc c8 9a a7 3b 6a f4 31 3e
       0.13840194 -0.029115725 0.005114887 0.17378393
0001b0 ec 5c 4a bd d3 d9 68 3e 05 f8 b2 3e ca 59 1c be
       -0.049405023 0.22739343 0.3495485 -0.15268627
0001c0 ca 3b 52 be e1 08 fa bd 58 01 cc bd b6 8b 8f 3d
       -0.2053062 -0.12208725 -0.09961194 0.070090696
0001d0 22 aa 82 3d 6e 2e d2 3b 97 65 e4 bd 98 89 86 bd
       0.063801065 0.0064142263 -0.11152189 -0.06569213
0001e0 14 54 49 bd ba 91 ee 3c eb ea 19 bd af 8b 4e bd
       -0.04915245 0.029122222 -0.03757755 -0.05042618
0001f0 0b c0 83 be 8f a4 0b be 56 ea 38 bd b9 b0 ac bd
       -0.25732455 -0.13636993 -0.045145355 -0.08432145
000200 83 a9 ab 3b 88 d6 e0 bd 3e 44 68 bc c3 fc 83 be
       0.005238713 -0.109784186 -0.014176426 -0.2577878
000210 f1 ca a3 bd e7 88 ac be b3 fb a8 bd 68 77 4e 3e
       -0.079976924 -0.33698198 -0.08251133 0.20162737
000220 8a c7 ad 3e ce 41 86 3e af cf 56 be 5d 89 e0 3c
       0.339413 0.2622208 -0.20977663 0.02740925
000230 4e 48 ad bd 65 25 7a 3e 60 e4 82 3e 84 cb 08 3e
       -0.08461057 0.24428327 0.2556486 0.13358885
000240 72 22 a5 3d 39 3a da 3c f7 66 9e bc 62 c4 4c bd
       0.080632105 0.02663909 -0.019336207 -0.049991973
000250 d6 d9 9e bc e1 17 13 bc 30 6b 38 3d 49 46 f1 bd
       -0.019390982 -0.008977861 0.045024097 -0.11780984
000260 bc 42 46 be 32 9a a0 3d 0f 36 85 be aa d5 a3 be
       -0.19361395 0.078419104 -0.26017806 -0.3199895
000270 62 96 25 be a9 f1 a5 be 70 7d 2e be 30 46 d3 3d
       -0.16170648 -0.32410935 -0.17040038 0.103161216
000280 f2 57 cc 3d f1 e3 fc bd 02 1d 93 bd c4 bd e1 bd
       0.09977712 -0.12348164 -0.07183267 -0.11022523
000290 6e 91 ec bd fd 30 15 be c9 56 b4 bd 7e 81 b5 3d
       -0.11551176 -0.14569469 -0.088056155 0.08862589
0002a0 51 cd 0b be 9d 44 6f bd 09 f8 b0 3d a5 1e 15 3e
       -0.1365254 -0.058415044 0.08641059 0.14562471
0002b0 95 c9 f7 3d 3c e9 96 3d dc 13 3c 3e 14 2d 53 3e
       0.120989956 0.07368705 0.18366951 0.20622665
0002c0 97 53 d3 3d 63 1f 1d bc 59 db be bd 4b da 55 be
       0.10318678 -0.009590003 -0.09319181 -0.20884053
0002d0 33 be e4 bd e3 d0 82 be 14 01 b0 be c1 e9 d0 3c
       -0.1116909 -0.25549993 -0.34375823 0.025502088
0002e0 1e c5 21 3e 3d bb 1f 3d 3f 2f 79 3d ec 3d a3 bc
       0.1579785 0.038996924 0.060836073 -0.019926988
0002f0 72 9f a6 bd 89 44 e6 bd 7d f5 0b be 65 84 cd bd
       -0.081358805 -0.11243541 -0.13667865 -0.10035018
000300 a0 94 09 3d fe 1f 4e 3d eb a1 26 3c e9 56 2b 3d
       0.033589005 0.05032348 0.01017044 0.04183093
000310 8f 7b 83 bd 1d 35 95 bd 9e c0 13 be de c2 12 be
       -0.06420051 -0.07285521 -0.14428946 -0.14332148
000320 48 79 8a 3a d2 be 8e bd b1 fc 20 bc 80 34 b3 bd
       0.0010564709 -0.0696999 -0.009825871 -0.08750248
000330 5f de ad 3c dd 41 a5 3c 35 00 91 bb 7f d9 cb 3d
       0.021224199 0.020173008 -0.0044250735 0.099535935
000340 73 e5 e9 3d 42 08 68 3e 10 7b 99 bd 8b 4f 8c 3d
       0.11420717 0.226594 -0.074941754 0.06851109
000350 ed 8e ba 3d fc 3c b2 be 0d 3d 2e be 6c 6e b2 3d
       0.09109292 -0.34812152 -0.17015477 0.087124676
000360 f3 2f e5 3d f5 c1 14 3e be 3e 49 3e 69 15 2f be
       0.11190786 0.14527114 0.1965284 -0.17098011
000370 12 8c 51 3e 31 4b 99 3d 3c d8 37 be 1b a7 e5 3d
       0.20463589 0.07485045 -0.1795358 0.112135135
000380 1c a8 56 3d 86 77 1c be a9 f9 61 bd d4 fe 09 3e
       0.052406415 -0.1527997 -0.055169735 0.13476115
000390 68 9b b2 be 4e a7 bf be 2d 7c 04 bf 9b 26 86 be
       -0.3488419 -0.3743233 -0.5175198 -0.2620133
0003a0 e6 2c ba be 20 02 30 bd 52 ec b2 3d 62 c4 1d bd
       -0.3636238 -0.042970777 0.08736481 -0.038517363
0003b0 a4 c8 27 3d c4 9a ec 3d 4c de 47 3d dd 23 f9 3d
       0.04096283 0.11552957 0.048795983 0.121650435
0003c0 11 94 76 3c 6b 15 da 3b 37 67 03 be e1 f1 c4 3c
       0.01504995 0.0066553853 -0.12832342 0.024041118
0003d0 b8 3b 93 bd 0b 32 33 bd 73 6b 36 bd 06 0c 7a bd
       -0.07189125 -0.043748897 -0.044536065 -0.061046623
0003e0 57 c1 05 bc 9e 00 62 bd 86 a9 15 be 24 1f 94 bd
       -0.008163772 -0.05517637 -0.1461545 -0.07232502
0003f0 43 c0 da 3d fc 0a a3 3c b2 bf 83 3d d8 06 ae 3d
       0.10681202 0.019902699 0.06433047 0.08497399

conv2.bias f4 [64]
000000 78 8e 83 bd a4 5a 0b bd 20 80 3a bb 99 5a b0 3c
       -0.06423658 -0.03402199 -0.0028457716 0.021527575
000010 50 be 16 be 29 67 03 bd 29 6b 5d 3d 64 9d d4 3c
       -0.14721036 -0.032080803 0.054057274 0.025953956
000020 a1 4c a7 3d ea 7b 0f bd bf 72 98 bd 7b 79 2f be
       0.08168913 -0.035030283 -0.07443761 -0.17136185
000030 1b 25 21 bd de c5 36 3c 7d e4 a6 3c c9 f7 8a bd
       -0.039342027 0.011155574 0.020372624 -0.067855425
000040 46 ff 88 bd a8 c1 91 bd ce 0b ed 3c b5 6d f4 bd
       -0.066893145 -0.07117015 0.028936293 -0.119349875
000050 9c 06 ab bd ee 97 c1 bd 9d 3d de bb 32 5c 2d bc
       -0.0835087 -0.094528064 -0.006782247 -0.010581063
000060 11 ad 6a 3c be eb 83 bc cc f4 e2 bd b2 55 2f be
       0.014323489 -0.016103622 -0.110818475 -0.17122534
000070 da f7 b3 bd 1a b9 73 3d 04 50 23 bd 28 0e d8 bd
       -0.08787508 0.0595027 -0.03987123 -0.10549575
000080 0f 17 02 3d dc b4 a0 3c 1f 42 b2 bd 55 69 21 be
       0.03176027 0.01961749 -0.08704018 -0.15762837
000090 7f f1 3c be ef bb c5 bc ae ce 18 be e0 ed 2a 3b
       -0.18451498 -0.024137465 -0.14922592 0.0026081726
0000a0 b8 ad 8c bc 31 40 89 bd c1 0c 08 bd 1d ad 3c bd
       -0.01717268 -0.06701697 -0.033215288 -0.04606353
0000b0 dd 77 1f bc c1 48 95 3c ef 9d 36 bd b2 e2 2d be
       -0.0097331675 0.018223168 -0.04458421 -0.16981009
0000c0 b4 3c 1d bd ae c5 4e bd 9a 29 6e bd ea 8e 9e 3c
       -0.03838797 -0.05048149 -0.058145143 0.019355256
0000d0 dc 3f 1a 3d ee 3d 18 be 03 1a 56 3d 16 0c eb bd
       0.037658557 -0.14867374 0.0522709 -0.114769146
0000e0 5e 26 70 bd 9c ab c2 bd 98 9e 2f be b7 ba 69 be
       -0.05863034 -0.09505388 -0.17150342 -0.22825132
0000f0 a1 c6 c2 bc a7 29 a3 3d fe 25 a0 3c 51 24 81 3c
       -0.023776354 0.07966929 0.019549366 0.015764387

fc1.weight f4 [128, 1600]
000000 af e3 fd bd 3f 45 08 3d 35 04 cc bd 3a 45 bf bd
       -0.12396943 0.033269163 -0.0996174 -0.09339376
000010 31 07 47 be 23 a3 40 be 62 e5 9e bc 94 fe 32 bd
       -0.19436337 -0.18812232 -0.019396488 -0.043699816
000020 97 51 e7 bd f9 fe 14 be a7 46 29 bd fa 21 f7 bd
       -0.11294859 -0.1455039 -0.041327145 -0.120670274
000030 8d c1 06 bd bc 83 06 be 30 51 64 be 77 d8 ed be
       -0.03289943 -0.1313619 -0.22296596 -0.46454212
000040 44 f9 7f be e4 64 5d 3c 33 87 94 3d 47 88 e3 bd
       -0.24997431 0.013512824 0.0725235 -0.11109977
000050 9f 0a b1 bc 22 15 59 3d 27 19 38 39 98 dc 9f 3d
       -0.02161151 0.05299867 0.00017556977 0.07805747
000060 bd 9b 9f 3d 54 39 8d 3d 51 1c 87 3d c2 b4 22 3e
       0.077933766 0.068957 0.06597198 0.15889266
000070 31 0b e5 3d 2d 6c 11 bd b1 2d 7a 3d a8 de 35 3e
       0.11183775 -0.035503555 0.06107873 0.17760718
000080 0a a5 41 3d 11 6c 9e bb e1 12 63 bd 2f 0c 1b bd
       0.047276534 -0.00483466 -0.055437926 -0.037853416
000090 ce 0e 5a 3e 90 2b ba 3d f4 91 41 be bd 28 52 be
       0.2129471 0.0909034 -0.18903333 -0.20523353
0000a0 82 11 af 3d fc f5 9b 3e 27 89 1e 3e 93 53 8b be
       0.08548261 0.3046111 0.15482007 -0.272122
0000b0 e5 0f 10 bd 0e a2 70 3e 75 b5 c7 3d 9b db 9f be
       -0.03517141 0.23499319 0.09751407 -0.31222233
0000c0 ad 44 a6 bd 8d ec 11 bc 5f ce b1 bc cd 6b 0c bc
       -0.081185676 -0.008906496 -0.02170485 -0.008570624
0000d0 c0 be 47 3b 36 04 7e 39 25 81 ed bb ad 15 9e bb
       0.0030478686 0.00024224896 -0.0072480612 -0.0048243613
0000e0 97 63 ca bc 34 90 e1 bc b6 1d 6a 3a d1 af 30 bc
       -0.024705691 -0.027534582 0.0008930819 -0.010784105
0000f0 49 d9 81 bc 35 37 f1 3b de 73 02 bc 49 ef 78 bc
       -0.01585068 0.0073613175 -0.007962195 -0.015193769
000100 f7 09 90 3d fb b0 e8 bc ff 0a ba bc cb ba ae bb
       0.07033151 -0.028404703 -0.022710321 -0.005332326
000110 78 3a 38 3b 47 e8 4f 3d 58 55 9a bb aa 88 3b bd
       0.0028111022 0.050758626 -0.004709881 -0.04578463
000120 8c 15 94 bc 00 42 0e bd 64 9c cd 3c 42 0f ed bd
       -0.01807668 -0.03473091 0.025098987 -0.11575176
000130 85 aa 3b 3c 94 99 fc bc 7f 3d e9 3d c9 1a 31 3d
       0.011454229 -0.03083495 0.113886826 0.043238435
000140 03 66 4c be 33 31 98 be 39 f4 bb 3c 60 ed f6 3d
       -0.1996079 -0.29725036 0.022943603 0.120569944
000150 64 01 ce ba d0 29 56 be 0e 6c 39 be ae d6 ba 3d
       -0.0015716967 -0.20914388 -0.18107626 0.09122978
000160 12 b6 80 3c 63 9e e8 3c 1c 5b a4 ba 06 24 f7 3c
       0.015711818 0.028395837 -0.001253936 0.030168545
000170 ed 06 54 3d 9b d3 00 be be f2 4f 3d f0 33 31 3e
       0.051764417 -0.12580721 0.050768606 0.17304969
000180 d6 7d 19 3e d0 c5 92 3a 21 09 1b be 84 6d fd 3d
       0.14989409 0.0011197869 -0.15140201 0.12374404
000190 f4 1e 94 3c ff b1 fb 3d 34 08 fa 3d 0a b1 1c bd
       0.018081166 0.122898094 0.12208596 -0.038254775
0001a0 9e 0a 11 bd b8 25 82 3d f4 d6 f5 3c 5b 2b f6 3c
       -0.035410516 0.063548505 0.030009724 0.03004997
0001b0 e7 71 71 3d 3f 29 01 3d 39 43 da bc 1d 30 03 3e
       0.058946516 0.031533476 -0.026643382 0.12811323
0001c0 b3 a1 ba 3d 27 2e e5 3d ca d1 3c 3c dc 9b 06 be
       0.09112873 0.111904435 0.011524627 -0.13145393
0001d0 b1 c0 d5 3d e6 3d 75 3e b1 64 60 3d 16 03 1e 3a
       0.104371436 0.23949394 0.054783527 0.00060276815
0001e0 ef 90 87 bc fa fd 16 3c 0f f9 e2 3d 1c c2 36 3e
       -0.016548602 0.009215826 0.110826604 0.17847484
0001f0 79 93 32 3e 05 96 17 3e 08 9a f8 bc be 9b ce bd
       0.17439069 0.14803322 -0.030346885 -0.10088299
000200 e9 6f 02 3d 0f c5 b9 3d 36 6f 2a bd 17 99 8b bd
       0.031845007 0.09070789 -0.041609965 -0.06816309
000210 52 98 18 3d f1 ac af 3d 02 d2 1b 3e 19 6c 1d 3e
       0.03725464 0.08577908 0.1521683 0.15373267
000220 ed db 03 3d 6f b8 1d bd 0b b8 33 3e 0e df 6e bd
       0.03219216 -0.038505968 0.17550676 -0.05831819
000230 ba d2 69 bd e4 bc 44 3e 5d 14 6b 3d 63 cd 93 3e
       -0.05708573 0.19212681 0.057392467 0.28867635
000240 2f 23 05 3e 9f e0 a4 3d 09 03 64 3d 1f 3b 81 3c
       0.13001703 0.080506556 0.055666957 0.015775261
000250 1d 45 bc bd 9a b7 11 be c4 ab fa 3c 3b 81 ba 3d
       -0.0919287 -0.14230195 0.030599482 0.0910668
000260 b8 40 6a be 92 91 71 bd f5 94 a1 bd bb 7f 86 be
       -0.2287625 -0.058976717 -0.078897394 -0.26269326
000270 e9 7c 2c be 24 ad 00 be d0 6f 46 bd 97 6b 89 bd
       -0.16844524 -0.12566048 -0.048446476 -0.06709974
000280 3a a9 c7 bd a3 62 27 be 6b 69 e5 bc cd 57 06 3a
       -0.09749074 -0.1634622 -0.028004369 0.00051247777
000290 b0 ca b5 be f2 2f 83 be dd 51 4d be 6a a4 01 bd
       -0.355062 -0.25622517 -0.2005076 -0.031650938
0002a0 0c 66 20 3e cc 64 c8 bd 36 66 79 bd 68 d5 dc bd
       0.15663928 -0.097848505 -0.06088849 -0.107828915
0002b0 bc 52 35 be 7c 9e c6 bc 3e 63 c4 3c db bd 2b 3e
       -0.17707342 -0.024245493 0.023973104 0.16771643
0002c0 7d aa bd 3a 93 f9 de 3d fe 09 e3 3d 94 2b b9 3d
       0.0014470365 0.10887446 0.1108589 0.09041515
0002d0 1f 2d 2f bb 15 b2 2c bd 75 c7 b8 3d 85 7d af bd
       -0.0026729775 -0.04216202 0.090224184 -0.08568863
0002e0 0e e9 f2 bc 9e f4 a1 bd c1 cf ef bd 24 62 62 bd
       -0.029652145 -0.07907985 -0.11709548 -0.055269375
0002f0 53 fb 1e 3e f0 c9 76 3d 0b 08 9c be 3b 30 01 3e
       0.1552556 0.060251176 -0.30474886 0.12616055
000300 30 0a 87 3e ec 98 c9 3d 60 4d ea bd 50 c4 00 be
       0.2637496 0.09843621 -0.11440539 -0.12574887
000310 ff 1c 8c 3d 15 4f cb bc a4 1c c8 bd e5 f9 8a bd
       0.06841468 -0.024817983 -0.09771088 -0.06785945
000320 f9 b9 25 be 5b df a4 3d 5b 7e 3f 3e 37 79 25 3d
       -0.16184224 0.08050414 0.18700545 0.040398803
000330 57 97 18 be 9c 49 f0 bd 7d 56 3c 3e 9d 78 81 3e
       -0.14901482 -0.1173279 0.18392368 0.25287333
000340 67 7d c9 3b 11 52 83 be 50 54 41 be 5e 44 5e bc
       0.0061489823 -0.2564855 -0.18879819 -0.013566105
000350 a7 d4 0c 3e 86 09 63 be 5b db e5 be d3 c5 f6 3d
       0.13752995 -0.22171602 -0.44893917 0.12049451
000360 f4 0d 2c bd e2 3b 82 be 2c aa 81 be 84 0d 87 be
       -0.042005494 -0.25436312 -0.25325143 -0.263775
000370 9d 63 d1 bb 41 04 68 3d 32 9d 47 3e a5 71 07 3e
       -0.0063900487 0.05664468 0.19493559 0.13226946
000380 9a 49 96 be 44 27 c2 3d 25 b1 7b 3d f7 66 14 be
       -0.2935303 0.094801456 0.061448235 -0.14492403
000390 61 f9 ab bd 96 04 ad bd 5a d2 d1 bd 4d a7 88 3d
       -0.083971746 -0.0844814 -0.102451995 0.06672535
0003a0 fd 05 9a be 7b e7 14 be 59 a5 ef 3d 5e 6f 08 be
       -0.30082694 -0.14541428 0.117014594 -0.13323733
0003b0 4d 8f 0b 3d 4a 07 a1 bd fb e9 15 bc 84 a6 3c 3d
       0.03407221 -0.078627184 -0.009150024 0.04605724
0003c0 9a 54 85 be bb 6a 4f 3d ab 07 b4 3c f7 7c ee 3d
       -0.26041108 0.050638895 0.021976313 0.11644929
0003d0 e7 5d 2f 3d a9 45 3b be 7b 3a 68 3c a5 77 fd 3d
       0.04281416 -0.18288292 0.014174099 0.12376336
0003e0 d8 4b 23 3e 9e f2 ac 3c fc 5f ba bd ca 6a 53 bd
       0.15946901 0.021111783 -0.09100339 -0.051615514
0003f0 21 ae 9c bc 13 1e a0 bc c8 bd 5b bd 52 0c 8a be
       -0.019126 -0.01954559 -0.053647786 -0.26962525

fc1.bias f4 [128]
000000 df 80 70 bc d0 38 9d bd c0 37 ad bc 06 c4 98 bc
       -0.014679163 -0.07676852 -0.021144748 -0.018648159
000010 f0 e3 2f bd 6c 5f 9b bd b5 2b 22 3c 86 11 8f bc
       -0.042941988 -0.0758656 0.009898116 -0.01746441
000020 ea 5f 10 3c c0 bf d6 bc e1 37 dc bc 87 a5 02 3c
       0.00881193 -0.02621448 -0.026882114 0.007974035
000030 df 6e 7f 3c fc de 62 bc 81 d3 0c bd 5e f6 0b bd
       0.015590399 -0.013847109 -0.034381393 -0.0341705
000040 96 3c c5 bc b9 5d 89 ba 89 67 be bc 0a 13 a4 bc
       -0.024076741 -0.0010480202 -0.023242729 -0.02002861
000050 0e 2a a3 3d 1a 59 e6 bc b9 7d 92 bb 8c f1 37 bd
       0.07967006 -0.028118659 -0.0044705537 -0.04490809
000060 e5 76 28 3b 48 03 0e bd 01 4a 69 3b 5e f2 e0 bb
       0.0025705632 -0.034671098 0.0035597088 -0.00686483
000070 b3 26 26 bb 22 73 a3 3c e3 46 df bc 85 51 c8 bc
       -0.0025352656 0.01995236 -0.027255481 -0.024452934
000080 75 0b df 3b 19 b5 9d bd 1f 00 5c 3c 60 e7 f7 bc
       0.0068067857 -0.07700557 0.013427763 -0.030261695
000090 d3 d2 a3 3c 68 30 55 3d 5f 48 e9 3b fe 9f 11 3c
       0.01999799 0.052048117 0.007119223 0.008888243
0000a0 b2 b2 25 bc 75 6d 6f bd c9 b7 45 3c 4c e8 e0 bc
       -0.010113405 -0.058453996 0.012067744 -0.027454518
0000b0 02 c9 97 bc dd 53 79 bc 02 32 ac 3c da 78 db bc
       -0.018528465 -0.0152177485 0.02101994 -0.026791025
0000c0 de 1b db 3b 22 09 ff bc 23 30 9c bc 68 52 24 bd
       0.0066866716 -0.031132285 -0.019065922 -0.04011765
0000d0 6b e8 ab bc f7 84 f7 bc 92 99 ff ba c5 2a 20 bd
       -0.020984849 -0.03021477 -0.0019500724 -0.03910329
0000e0 f8 ef 72 bc f4 93 6a bc 12 d8 56 bc 70 e9 65 3d
       -0.014827721 -0.014317501 -0.013113039 0.056130826
0000f0 50 be 80 3d dd a1 dc 3b 35 81 c7 bb ca 4d 96 bc
       0.06286299 0.006733163 -0.0060884007 -0.01834764
000100 05 cc 2b 3d 1d c6 71 bd 7f bf b8 bb f0 1d 16 3d
       0.041942615 -0.059026826 -0.0056380625 0.036649644
000110 0b 94 61 bb 4d 8f 8f bb b5 77 c3 3b 9b 92 b3 3b
       -0.0034420516 -0.0043810965 0.005965198 0.005480123
000120 23 b6 2d 3c eb 52 97 bc 60 71 aa bc 53 cc 65 bd
       0.010602507 -0.018472156 -0.020806015 -0.056103062
000130 af be 2d 3c 9a 4a 9d bc 9b a9 e9 3c ef 70 a2 bb
       0.010604545 -0.019200612 0.028523257 -0.0049573104
000140 f0 f6 ac bd 1d 7f c4 bc 11 e0 00 bd 60 e1 db bc
       -0.08445537 -0.023986394 -0.031463686 -0.026840866
000150 a5 bf 25 bc ac 73 79 bb 48 bb b5 bc 6b 37 e5 3b
       -0.010116492 -0.003806333 -0.02218403 0.0069951317
000160 83 09 28 bd 92 4b 1e 3d 35 84 48 3d b4 94 a2 bd
       -0.041024696 0.03864629 0.048954207 -0.07938519
000170 86 d6 60 bd 27 b1 ed bc 65 52 8f 3c 20 aa b0 3d
       -0.054892085 -0.029015137 0.017495343 0.08626199
000180 d4 9d 32 3c c1 b3 e6 bc a4 ac 88 3c ba 20 55 bc
       0.010901887 -0.028161885 0.016683884 -0.013008291
000190 82 d8 93 bd e9 df ae bc ea 43 65 bd 6a 29 03 3c
       -0.0721903 -0.021347003 -0.05597297 0.008005479
0001a0 d3 5c af 3d 53 2b c4 3c 3c 71 f9 3b 52 a6 26 bc
       0.08562627 0.02394644 0.0076123755 -0.01017149
0001b0 49 d7 9f bc 75 37 2e bc 76 ed c3 3c a6 3f 5d 3d
       -0.019511836 -0.010633339 0.023916941 0.054015778
0001c0 ad 5b 4b bc df f7 0f bd 37 2b dd bb d6 d5 80 bd
       -0.012411994 -0.035148498 -0.0067495364 -0.06290786
0001d0 6b 84 89 bc 4d 13 53 3d 9b 14 e5 bc d7 37 15 3c
       -0.016786775 0.05153208 -0.027963927 0.009107552
0001e0 c2 f8 d7 bb e2 42 20 bd ec 22 9a bd 19 79 a1 bc
       -0.0065909335 -0.039126284 -0.07526192 -0.019711064
0001f0 a1 b7 4e bc 6d 78 81 3c 63 39 15 3c cc f2 9e 3b
       -0.012617023 0.015804494 0.00910792 0.004850721

fc2.weight f4 [37, 128]
000000 f9 64 c0 be c5 cb 61 bb ac 6c b7 bd c1 54 a5 3c
       -0.37577036 -0.0034453731 -0.089562744 0.020182015
000010 e3 e8 cf bd 13 00 f3 3c e2 70 36 bd fb d4 54 3d
       -0.101518415 0.029663121 -0.044541247 0.051960927
000020 17 2e 9e bd d3 42 96 3d 2e e7 84 3c 89 c2 c4 bc
       -0.07723635 0.073369645 0.016223516 -0.024018543
000030 9d a4 c9 bc f0 b1 d4 bb 14 e1 a5 bd a2 d4 7f bd
       -0.024614627 -0.0064909384 -0.08099571 -0.06245864
000040 90 6d af bd a2 9d c1 bd b3 82 51 3b d2 48 a1 bd
       -0.08565819 -0.09453894 0.0031968772 -0.078752175
000050 6d 6b a0 bd 43 a0 11 bf d9 02 03 be 0b 69 85 bd
       -0.0783299 -0.56885165 -0.12794055 -0.06514176
000060 2c 8d 52 3d 98 57 76 bd da cf 80 3d 82 2c 08 bd
       0.051404163 -0.06014213 0.062896445 -0.03324557
000070 fc 16 bb bc dd b7 ac bd fd 8f 6d bc b3 c1 89 bd
       -0.022838108 -0.08433507 -0.0144996615 -0.06726398
000080 02 19 e0 bc 91 b4 01 be 64 dc 94 bd 8b d9 69 bd
       -0.027355675 -0.12666537 -0.07268599 -0.05709223
000090 25 b3 bf bd 3b 3f dc bd b7 f8 a1 bd 55 4e 2b 3d
       -0.09360341 -0.10754248 -0.07908767 0.04182275
0000a0 a6 1b 28 bd 7b b4 02 be e4 13 19 3d 5d 43 a0 bb
       -0.041041993 -0.1276416 0.037372485 -0.004890843
0000b0 56 0d 50 bd 81 f1 73 bc 23 e2 e8 bd af 5b 34 3d
       -0.05079397 -0.014889122 -0.11371257 0.04403275
0000c0 62 8f 4c bd 93 6a b2 bd cf ad 9f 3d 3f 7f da bd
       -0.049941428 -0.08711734 0.07796823 -0.106688015
0000d0 8a 10 83 3d 9a 02 d0 3c 1c de f6 3c 83 c2 d7 bd
       0.06399639 0.025391866 0.030135207 -0.10535147
0000e0 51 d9 c3 bd 74 f9 f0 bc 92 56 a8 bd bb 17 8b bd
       -0.09562934 -0.029415824 -0.08219637 -0.067916356
0000f0 18 87 d8 bd d1 17 9f bd 6b 8b ab bd 1c 69 49 bc
       -0.10572642 -0.077682145 -0.08376201 -0.012293126
000100 16 bd 87 bd 52 c2 43 bd 67 96 37 3c 96 d4 df bd
       -0.06627862 -0.04779274 0.011205292 -0.109292194
000110 60 bd 8c bd a9 31 d9 3c 06 74 9c 3d 9e 8a a2 3c
       -0.06872058 0.026512938 0.07639317 0.019841488
000120 81 4d bb bd d1 58 d5 bd a2 15 4c 3d 61 b8 7e bd
       -0.09145642 -0.10417331 0.04982532 -0.062187556
000130 8b 6a 98 bd a8 f7 24 be 03 6a 5e bf 6a 2c 90 bd
       -0.074421965 -0.16110098 -0.8688051 -0.07039721
000140 17 c4 cc bb c8 91 cb ba 49 fc 77 3d 4c ed 2e bb
       -0.0062489617 -0.0015531117 0.060543332 -0.0026691733
000150 e0 4c c6 bd 13 82 af bd 88 dc e9 bc 9f 0e 82 bc
       -0.096826315 -0.085697316 -0.02854754 -0.015876113
000160 b1 04 14 bd 61 76 ab bd 78 29 f4 bd a7 c7 14 3d
       -0.036137287 -0.08372188 -0.11921972 0.036323216
000170 4d 61 7b be bf 3d 7f be 05 a8 fd bd 94 60 b5 bf
       -0.24548836 -0.24925898 -0.12385563 -1.4170098
000180 8b 71 24 be 90 3e 26 be 71 d5 33 3d 34 88 63 3c
       -0.16058938 -0.16234803 0.043904725 0.013887454
000190 6f f4 ce be c2 0f b9 3c 5d 7b 20 bf ae 7d ae bc
       -0.40420863 0.022590522 -0.6268824 -0.021300163
0001a0 e5 47 9a bd bc 8d 86 be 60 1a 92 bd e2 f5 c6 bd
       -0.07533244 -0.2628001 -0.07133937 -0.09714867
0001b0 84 20 02 bc 4c 71 96 bc 51 91 02 bf 18 ca 46 bd
       -0.007942323 -0.018364571 -0.51002985 -0.048532575
0001c0 45 2c 12 bd 6a aa b7 bb 81 9d 1d ba 60 35 c2 bc
       -0.03568675 -0.0056050317 -0.00060125446 -0.023707092
0001d0 bc 88 6d bd d2 5a 26 be a2 f7 93 3d 91 00 b9 bd
       -0.05799173 -0.16245583 0.072249666 -0.09033311
0001e0 fc 22 d5 bd 92 6f 81 3d 3c f0 4c bc fc a9 eb bc
       -0.10407063 0.063201085 -0.012508448 -0.028767578
0001f0 a5 3d 0d be 1b fa 81 3d 53 71 48 bd 0f ba 0e bd
       -0.13793047 0.06346532 -0.0489362 -0.034845408
000200 7b 5e 31 bc 95 6c 77 bd e5 5b 42 bd 69 39 92 bd
       -0.010825749 -0.060406286 -0.04745092 -0.07139856
000210 8a 3c e0 3c 56 4b f4 3d e5 10 2c 3d 42 b8 4a bd
       0.027372617 0.11928432 0.0420083 -0.04949213
000220 01 ce e5 3c 26 11 d1 bc 05 6d 80 3c 94 bd 23 bc
       0.028052332 -0.025520872 0.015676985 -0.009993929
000230 e8 bb 60 3c 35 32 b1 3d 78 a4 63 3d dc 1c 8f 3d
       0.013716675 0.08652154 0.05557677 0.06987926
000240 c1 04 42 bd 0d c1 2d be 3e 6d 70 bc 62 a7 4d 3e
       -0.047367815 -0.16968174 -0.014674483 0.20083383
000250 f3 9e 39 3d 5f 1a 08 bd 8e b3 26 3e 49 40 61 be
       0.0453176 -0.033228274 0.16279432 -0.21997179
000260 ba a5 a1 bc d8 50 25 3d 2e 05 7a bd a6 c7 9f bd
       -0.019732345 0.0403603 -0.061040096 -0.07801752
000270 91 9a 7c bd be 2b b1 bd 6f 1f 87 bd d8 be 83 3d
       -0.061670844 -0.08650921 -0.06597792 0.06432885
000280 e1 22 e5 bc 8f 04 bb be 50 af ce 3d ff d7 27 3d
       -0.027970733 -0.36526915 0.10092032 0.040977474
000290 9d 09 03 be f6 25 30 be 72 5b 20 bd 98 f1 2e 3d
       -0.12796636 -0.17201981 -0.03914971 0.04271087
0002a0 43 14 a3 bb f6 c5 11 be b2 6d 4d bd a5 9f af 3d
       -0.0049767806 -0.14235672 -0.05015344 0.08575372
0002b0 0f 50 3e 3d 12 75 43 be ea 4b 1b bd db bb c3 bd
       0.04646307 -0.19087628 -0.037914194 -0.09557315
0002c0 92 58 1c 3c 9c 46 d9 3d 32 2a 5e bd ba d1 4c be
       0.009542601 0.10609171 -0.05423946 -0.2000188
0002d0 3c ea a6 bb c0 ab 94 be 2b af 55 3d 8f 18 92 3e
       -0.005093841 -0.29037285 0.052169006 0.28534362
0002e0 fc 80 c6 bc e4 05 aa bd 99 ba 9a 3d 7f a7 37 be
       -0.024231426 -0.08301905 0.07555122 -0.17934988
0002f0 76 fb 40 bd 92 7a 5b 3e b6 58 d6 3c e0 9e 58 3b
       -0.04711481 0.21433476 0.026165348 0.0033053681
000300 a2 d6 ca 3d 87 d3 20 bc 31 fc b8 bd 16 36 96 bb
       0.09904219 -0.009816057 -0.09032477 -0.0045840843
000310 5b 38 28 3d bd e3 8f bc cc ea 45 bd 7c f6 ab b8
       0.04106937 -0.017564649 -0.048319623 -8.199827e-05
000320 28 8e 15 bd 4b 78 3c 3d 1e 2a 1a 3c 6d cd c4 bb
       -0.036512524 0.046013158 0.009409456 -0.006005934
000330 4a c1 52 3d 33 07 1e 3d 57 38 a2 3e 44 e2 20 bc
       0.051453866 0.038581084 0.3168361 -0.009819571
000340 f1 72 79 be 1e a1 3e 3e 81 5f 89 bd fd 99 9f bd
       -0.24360253 0.18616149 -0.06707669 -0.07793043
000350 79 d3 0b be ce 36 a2 bc ac 42 95 3d 23 d2 83 bd
       -0.13654889 -0.019801524 0.07288107 -0.06436565
000360 5a ad b9 bc 14 97 0a be 83 63 3c be 3c 52 0b 3d
       -0.022665668 -0.13534194 -0.18397336 0.03401397
000370 7a bc 50 be 53 41 74 bd db f2 42 be 0e 92 35 bd
       -0.20384398 -0.05963261 -0.19037955 -0.04432874
000380 21 bc f5 3b 8c 12 34 be b6 26 84 bd 86 ef ad 3d
       0.0074992334 -0.175852 -0.06452696 0.08492951
000390 4b 31 3b be 06 6d 89 bd 14 cf b4 bc 18 1e 54 3d
       -0.18280523 -0.06710248 -0.022071399 0.051786512
0003a0 37 e7 3c be a6 21 ad 3d 20 31 5e bc 13 10 84 3d
       -0.18447576 0.084536836 -0.013561517 0.064483784
0003b0 55 27 7a bd 1f 6c 39 be 70 1a 82 be 16 05 ff bd
       -0.061072666 -0.18107651 -0.25410795 -0.12452142
0003c0 e5 f6 48 3d 14 a6 49 3d 68 9d b0 bd 6a 24 32 3d
       0.049063582 0.04923065 -0.08623773 0.04349176
0003d0 23 f6 2f 3d 54 bb 98 ba 95 77 04 bd 6e a3 b0 bd
       0.042959344 -0.0011652508 -0.032340605 -0.08624922
0003e0 1e 02 32 3d c1 f0 24 3c 43 9c 60 be 0f 11 d7 3c
       0.04345905 0.010067166 -0.21934609 0.026253251
0003f0 75 00 b4 bd ee 27 5c bc fa 91 2d 3d fc 2d a9 3d
       -0.0878915 -0.013437254 0.042375542 0.08260724

fc2.bias f4 [37]
000000 4b 30 d4 bd 62 2c 88 3c 87 15 e8 3c 71 44 7f 3d
       -0.10360774 0.016622726 0.028330578 0.06232113
000010 6a 0d 13 bd 5c d1 c2 bc 1d 43 35 3d a7 fe 05 3c
       -0.035901465 -0.023781471 0.044253457 0.00817839
000020 20 90 04 3e 44 87 c2 3d 5a 9b 32 3b 1f 63 7b bd
       0.12945604 0.09498456 0.0027253241 -0.061373826
000030 b8 c0 0c 3d cb 35 83 bd a7 64 ca 3c 51 3b 5d 3d
       0.03436348 -0.064067446 0.024706198 0.054011647
000040 c6 64 9e 3d 65 c2 bb 3d 98 63 d2 bd 9d 2f 3e 3d
       0.07734065 0.09167937 -0.10272902 0.046432126
000050 27 10 70 bd ff f4 20 3d ea d8 42 bd d0 3a b3 3b
       -0.058609154 0.039296146 -0.047570147 0.0054696575
000060 c1 2c aa bc e6 fa 7c 3b 66 75 c7 3c ec 35 a8 bc
       -0.020773293 0.0038601696 0.024347972 -0.020533524
000070 b6 c9 ba bd 5b 3e 84 bd de 65 ab bd b7 8b bc bd
       -0.091205046 -0.06457206 -0.08369039 -0.09206336
000080 b3 8a 15 3d e2 62 27 3d f7 43 20 3d ac cf bb bd
       0.036509227 0.040865786 0.039127316 -0.0917047
000090 e5 a2 b3 bd
       -0.08771304
